traced_denoiser_model.pt (torch, 195295 bytes, 62 tensors)

weight f4 [64, 1, 3]
00000000: 94ec 76be 0177 14be a117 f53e 67ec ec3e
00000010: 26e5 78bd 6a4d ff3e 1673 6cbd 5bae 19be
00000020: fa8a 853e aafb cc3e b193 013f 9f11 3dbe
00000030: ce93 13bf 611b adbd 90ed fe3e 9308 acbe
00000040: 8a5c 3fbe a3b8 be3e 604d 6abe 5631 183f
00000050: 1e33 2d3d 5af7 553e f111 003e afa0 043e
00000060: 4acc 92bd c7e7 683e f2d3 b6be f82a e4bd
00000070: 6d89 0a3f cca6 4f3e 088a d5be c6c5 863c
00000080: 5079 a93e f64b 28bc 7237 03bf 2606 7dbe
00000090: 7164 fc3e 3a92 6c3e 583e 67bd 3eb0 debe
000000a0: 8a98 3dbd f828 583e 9f30 03be 3b62 74bb
000000b0: 0345 23be 7956 abbe 4aa9 df3e 7967 66be
000000c0: af76 fd3d 2ae5 a63e da70 953e 01b3 a43e
000000d0: 9ca6 79be 53af e8be fe87 d53e d94d 093e
000000e0: 788e f0be d7bc 863e a95f c9be e0f7 0d3e
000000f0: 323a 143e f371 ecbe 0a32 00bf 6d51 0a3f
00000100: 978e 2dbe 14bc 753e 3f3b 8a3e f337 be3e
00000110: 6ce7 03be 32b3 893e 7bae dcbe 5da0 113f
00000120: fc94 063f ae94 c9be b01c f03e faba 0fbf
00000130: bf34 0cbf 5a4e f2be b238 23be 2721 47be
00000140: 99e8 3cbe 90a5 893c 0527 6abe 6320 70be
00000150: 1d73 ee3d 3295 54be cd60 edbe 86c3 b0bd
00000160: f139 c93e d77b 13bd 3979 093e e95a bf3e
00000170: 043b 723e 955a b63e c05c d73d 3272 7dbe
00000180: 7ebe 833c 6786 a83e addb 083e 99c1 e4be
00000190: fda1 64bd 19b3 f7be 3f0a 85be d0b9 1e3d
000001a0: a1d6 02bf ade0 0cbe dc85 a1be 12b4 09bf
000001b0: 7c1f a5be d055 be3e a469 2ebd ca7b 4cbe
000001c0: 5d8b c23d 7ee7 aebe 4928 11be 2bc2 d1be
000001d0: 9dda 9a3e ec91 ed3e 1ad1 2abe c502 ecbe
000001e0: f974 98be 6b0d b43e fd22 5e3e b37b 09bf
000001f0: 31c5 83be de21 0c3e 8e86 0dbf d016 feba
00000200: 596f e03e afe3 c03e 14cb 8bbe 73ea f83e
00000210: 5305 a63e 38b4 e63e 90bd fabe 0b95 e2be
00000220: 7071 ecbe 8d7c a2be 46af 7a3e 72cd eebe
00000230: bbce c13d a16a eabd 1b2c a13e 598c e93e
00000240: b610 923e 8c45 403e 1d1b 353e 53e6 1b3b
00000250: beca ccbd 4d48 b13e 2db3 083e c4dc b3be
00000260: 2b75 14be d8c5 5fbe ed1c 343e 45e9 3f3c
00000270: 166d 403e de08 94be ba57 92bd e09d fe3e
00000280: b721 373e ad8a e33c f19f 223e 5a52 d13e
00000290: d5cf 2bbe ebe9 9fbe 8287 063f 8050 1a3e
000002a0: 09ba c8be 9cda efbe 36ad f2be 8391 0cbf
000002b0: 13fb fbbe 3ab7 a73e 6427 acbe 2c35 4d3d
000002c0: d065 cebd a390 cebc 1004 cfbe 1dfa e73e
000002d0: cddb 523e 93dd a4be 1c0b 12bf 701e 523e
000002e0: 5922 14bf da0c 4e3e 9037 92be 792f 84be
000002f0: 1847 0bbf b7db 0d3f 01d5 8ebe 7892 ca3e
-0.24113685 -0.14498521 0.4786959 0.4627411 -0.060765408 0.4986375 -0.057726942 -0.15007918
0.26082593 0.40035754 0.50615984 -0.18463753 -0.5764741 -0.08452488 0.4979062 -0.33600292
-0.18687645 0.37250242 -0.22881079 0.5945028 0.042285077 0.20895138 0.12506844 0.12951921
-0.07167871 0.22744666 -0.35708576 -0.11141008 0.54115945 0.20278472 -0.41706872 0.016451728
0.33100367 -0.010272017 -0.5125648 -0.24709377 0.4929538 0.23102656 -0.05645594 -0.43493837
-0.04628805 0.21109378 -0.12811516 -0.0037289995 -0.15944295 -0.3346441 0.43683845 -0.22500409
0.12376153 0.32596713 0.2918766 0.3216782 -0.24379963 -0.45446262 0.41705316 0.13408603
-0.46983695 0.26315948 -0.39330795 0.13864088 0.14475325 -0.46180686 -0.50076354 0.54030496
-0.16948925 0.23997527 0.26998326 0.3715206 -0.12881249 0.26894528 -0.43101868 0.5688532
0.5257108 -0.39371246 0.46896887 -0.5614468 -0.54767984 -0.47325402 -0.15939596 -0.1944624
-0.18448104 0.01680258 -0.22866447 -0.23449855 0.1164305 -0.20760038 -0.46362916 -0.08631043
0.39302018 -0.036006775 0.13425149 0.37374046 0.23655325 0.35615984 0.105157375 -0.24750593
0.016082045 0.3291504 0.1336505 -0.44678953 -0.055818547 -0.48378828 -0.2598438 0.038751423
-0.5110875 -0.13757582 -0.3154744 -0.5379039 -0.32250583 0.37174845 -0.042581216 -0.19969097
0.09499238 -0.3416099 -0.14175524 -0.4096845 0.30244914 0.46400392 -0.16681328 -0.46095863
-0.29776743 0.35166487 0.21693034 -0.53704375 -0.25736383 0.13684794 -0.5528344 -0.0019385461
0.43834952 0.3767371 -0.27303374 0.4861637 0.32425937 0.4505937 -0.4897275 -0.44254336
-0.46180296 -0.3173565 0.24480924 -0.46641117 0.09463259 -0.11446119 0.31478962 0.4561489
0.28528374 0.1877653 0.17686124 0.0023788407 -0.099996075 0.34625474 0.133496 -0.35129368
-0.14497821 -0.21852815 0.1758916 0.011713331 0.18791613 -0.28913015 -0.07145639 0.49729824
0.17883955 0.027776087 0.15881325 0.40883142 -0.167785 -0.31233153 0.5255052 0.15069771
-0.39204434 -0.46846473 -0.47397774 -0.54909533 -0.49214992 0.32756978 -0.33623803 0.050099537
-0.10078013 -0.025215453 -0.40432787 0.4530801 0.2059166 -0.32200298 -0.570482 0.20519423
-0.5786491 0.2012209 -0.28558016 -0.2581747 -0.54405355 0.55413383 -0.27896884 0.39564872

bias f4 [64]
00000000: b77a 34bd ecf4 febe a742 8bbd 1477 00bf
00000010: 9188 ca3e 56ea ecbc 9585 c0bb 636d 09bf
00000020: 7eb3 f2be c5ad 17bc 67fa 1c3e 5c64 003f
00000030: 880b 43be 6c61 233e 9d99 b9be ed6e 6cbd
00000040: c8e3 ab3e 4413 b23e d256 353e acdb b2be
00000050: 7a0f 673e 7633 d33e e629 a73d f29e 7d3d
00000060: f344 53bd 41ee f03e c2f7 653d c8c2 8e3e
00000070: 191e 5a3e f6df 12bf e180 a6be 862f ecbd
00000080: 4abe aabe 80fd 8a3d e7cc edbe d660 6bbe
00000090: e550 553d 480e acbe 76b6 7c3e 73fa 8d3e
000000a0: 6bd9 e63e 2d77 0abe 744c 7a3e 8f02 06bf
000000b0: 0cd5 ef3e 13ea 6f3e ab16 d13e 1db6 75be
000000c0: 7ec8 5b3e 9f98 493d f08b dcbe 0ed9 0c3f
000000d0: 08b4 2ebe d399 59be e747 643e 87b3 87be
000000e0: d834 be3e 3f7e 76be 6dd7 d1be 449e cfbe
000000f0: 3127 5dbe d067 c3be ff81 ec3e c390 07bf
-0.044062342 -0.49796236 -0.06799822 -0.501817 0.39557317 -0.028920334 -0.005875299 -0.53682536
-0.47402567 -0.0092577385 0.15329896 0.50153136 -0.19047368 0.15955132 -0.3625001 -0.057722975
0.3357222 0.34780324 0.177089 -0.3493322 0.22564498 0.412502 0.08162288 0.06191916
-0.051579427 0.47056773 0.056144483 0.2788298 0.21300544 -0.5737299 -0.32520202 -0.11532502
-0.33348304 0.067866325 -0.4644539 -0.22986159 0.0520791 -0.33604646 0.24678978 0.2773014
0.45087752 -0.13522024 0.24443227 -0.52347654 0.4684223 0.23429136 0.40837607 -0.23995252
0.214632 0.049217816 -0.43075514 0.550187 -0.17060864 -0.21250086 0.22293054 -0.26504156
0.37149692 -0.24071597 -0.4098467 -0.40550435 -0.21596982 -0.3816514 0.4619293 -0.52955264

weight f4 [64]
00000000: 6629 773f c9e7 793f 1db5 793f bbf0 803f
00000010: dee7 853f babc 813f 88ac 7e3f b9d7 793f
00000020: 6d7e 813f 3853 7e3f 40ca 843f 6b2e 843f
00000030: 693a 7c3f f9d5 803f 298a 803f 2412 7a3f
00000040: eaf4 7f3f e819 823f 3180 7e3f 02b2 7a3f
00000050: bd6d 7f3f 9d98 7b3f d314 7b3f a88e 7a3f
00000060: 516e 7f3f 6155 803f 1d83 853f 9419 803f
00000070: 475e 813f 9817 7b3f a273 803f 3f47 793f
00000080: 4ea8 7f3f 56ee 7e3f 1c29 803f e15c 823f
00000090: 0eb8 7c3f 41d5 813f 26e4 813f e303 803f
000000a0: 1cb1 793f 0dc1 823f 0429 783f e0be 803f
000000b0: 7787 7c3f c68b 803f a35f 803f 2e8a 7a3f
000000c0: ded1 7f3f 022f 803f afc8 7d3f 8bca 7d3f
000000d0: 4512 7f3f 8cf6 7d3f 828e 7c3f fc62 7d3f
000000e0: 9dbb 7c3f 6265 7d3f 65a5 833f 9509 7e3f
000000f0: 9e81 823f a1ff 803f 4836 813f e9cb 7b3f
0.96547544 0.976193 0.9754198 1.0073465 1.0461385 1.013572 0.9948201 0.9759479
1.0116707 0.9934573 1.0374222 1.0326666 0.98526627 1.0065299 1.0042163 0.9768393
0.99983084 1.0164156 0.99414355 0.9792787 0.9977682 0.98279744 0.9807865 0.97873926
0.99777704 1.0026056 1.0430638 1.0007806 1.0106896 0.98082876 1.0035288 0.9737434
0.9986619 0.9958242 1.0012546 1.0184594 0.98718345 1.0143205 1.014775 1.0001186
0.9753587 1.0215164 0.96937585 1.005825 0.986442 1.0042655 1.0029186 0.97867095
0.99929607 1.0014346 0.99134344 0.9913718 0.9963725 0.99204326 0.9865495 0.98979163
0.98723775 0.9898282 1.028485 0.9923337 1.0195806 1.0078012 1.009469 0.9835802

bias f4 [64]
00000000: a3be 45bc e856 57bc 5463 0abc 478d d33c
00000010: fe65 533c 5688 1e3d fcfc df3c 9ecb b7ba
00000020: d866 d3bb c3bc d43b 2d75 a03b 0db7 f33c
00000030: 36bd 2ab9 cca7 30bb 259a c03b ae7f 5cbb
00000040: c4ea 813c 11ef 24bc cdc7 85bc e632 ffbc
00000050: c81c 253c bbee fdbb 85eb dbbb 97d0 e43a
00000060: 63d8 773c 7767 f33b e6b5 1e3d d6e2 203b
00000070: 75be 4e3c d2f9 893b 9477 6f3c 44ca 9abc
00000080: d7c5 fcbb 3beb 44bb 37a8 62bc e953 1ebc
00000090: c89d c83a 5f29 703b f24c 593c 304c 9dbc
000000a0: 8502 f8bb 98ff 363b a767 9fbc 313b bd3b
000000b0: dbb1 a83b 57c7 17bc 8d4e 57bc ab5a ffbb
000000c0: 5984 0b3c e8e7 8c37 772e b6bb cb0f 5bbc
000000d0: e84f cf3b 8128 93bc 3848 86ba ab50 45bc
000000e0: c48c a9bc 55dd a0bc 84e4 4c3c e5a6 1ebc
000000f0: 229a 4c3c caba 103b dca5 093b 9a0b 82bc
-0.012069377 -0.013143279 -0.008446533 0.025824202 0.012902735 0.03870424 0.027342312 -0.0014022475
-0.006451469 0.0064922287 0.004896781 0.029750371 -0.0001628295 -0.0026955483 0.0058777505 -0.003364544
0.015859015 -0.0100667635 -0.016330624 -0.0311522 0.010077663 -0.007749406 -0.0067114257 0.0017457184
0.015127274 0.0074281055 0.03874769 0.0024549267 0.012618651 0.004210689 0.014615912 -0.018895276
-0.007714014 -0.0030047435 -0.013834051 -0.00966356 0.0015305812 0.0036645753 0.013262974 -0.019201368
-0.0075686597 0.0027923342 -0.019458605 0.0057748784 0.005148155 -0.009263835 -0.013141287 -0.007792791
0.008515441 1.679729e-05 -0.0055597383 -0.013370465 0.0063266642 -0.01796365 -0.0010244912 -0.0120431585
-0.020697005 -0.01963679 0.012505654 -0.009683345 0.01248792 0.0022083991 0.00210034 -0.015874673

running_mean f4 [64]
00000000: e055 773f 2ff5 6441 9a46 833f 5c0f 9341
00000010: 5c2b 86c0 ef77 82c0 7c83 2241 7511 0f41
00000020: 4df5 8cc0 bc12 6341 e5ac 9dbf f24d 68c1
00000030: 94d2 5141 ba03 b7c0 7ad8 bac0 b211 e9bf
00000040: fb9f 4841 37b3 fbc0 cfa1 d83f 4239 97be
00000050: 3f63 d3c0 e994 9540 5555 4a40 fb85 f13f
00000060: 98be 1840 fc08 6ac1 904b 36c1 e9a4 d6c0
00000070: 8e6d 83bf 600e 83bb ca47 ab3f 77fe c93e
00000080: 52ed 643f b755 22c0 39cf 21c0 992b 4dc0
00000090: d384 b43d b2ab e8bf a174 24bf 81db a5be
000000a0: 91eb be3f bc36 31c0 c15d 6abe e61a 0140
000000b0: 756a e33f d014 b0c0 3fdf 67be f00c 4440
000000c0: e6dd 6640 722d b03f 1c08 1dc0 e2db c73e
000000d0: 44ad 99bf 9097 8240 41fc 2e40 3c6a 0640
000000e0: 0b1e 08c1 69f3 a5c0 ba31 49c0 089f 7bbe
000000f0: 0ca2 abc0 0ac1 ddbf b618 02c1 a9c6 9c40
0.9661541 14.309859 1.0255921 18.3825 -4.192793 -4.0771403 10.157101 8.941762
-4.404944 14.192074 -1.2318388 -14.51903 13.113911 -5.719205 -5.8389254 -1.8208525
12.539058 -7.865627 1.692438 -0.29535872 -6.605865 4.6744275 3.1614583 1.8869013
2.386633 -14.627193 -11.393448 -6.7076306 -1.0267808 -0.0039995164 1.3381283 0.39451954
0.8942462 -2.5364816 -2.5282729 -3.205786 0.08814397 -1.8177397 -0.6424046 -0.3239403
1.4915639 -2.7689657 -0.22887327 2.0172668 1.7766863 -5.5025406 -0.22643755 3.0632896
3.6072936 1.3763869 -2.45362 0.39034945 -1.2006001 4.0810013 2.7341464 2.100234
-8.507335 -5.185963 -3.14366 -0.24572384 -5.363531 -1.7324536 -8.131033 4.8992505

running_var f4 [64]
00000000: 001e 0f41 981e fe42 bd8b d23f d6e4 8642
00000010: 52b3 2241 7c0c b140 7ed0 5b41 fcda 8d41
00000020: 6e2b a740 bd45 ea41 53c2 5e40 1f60 1c42
00000030: 1959 ee41 8887 0741 ddc0 ab40 1961 6440
00000040: 7ec9 0442 3690 5941 5c53 a740 ebe1 ce3f
00000050: 319d d942 ed08 8942 9e73 4242 0eea 0042
00000060: 1b39 7d42 698f c842 1307 8041 2587 0641
00000070: 38f8 5c42 21c1 7d41 1b1f e542 1ca8 3941
00000080: 82c5 4842 1975 5743 3ec2 f442 eb09 6543
00000090: 70f7 c93f 4815 4342 124f 8b41 f8c0 2741
000000a0: be43 a441 dbc9 e442 0743 e940 48ae c142
000000b0: 951f d441 7ef6 d443 94f8 c140 ffb7 0043
000000c0: 6192 fd42 de88 9a41 589b 2442 3b1f 213f
000000d0: 5367 2141 006a 2143 55bd 5342 b74e 3742
000000e0: dfc0 1544 a475 3043 934f 4e42 abef e53f
000000f0: 58e4 2543 1ccd 3c41 2234 d043 8c85 1f43
8.944824 127.05975 1.6448895 67.446945 10.168779 5.532774 13.738401 17.731926
5.2240515 29.284052 3.4806106 39.09387 29.793505 8.470589 5.367293 3.5684264
33.19677 13.597708 5.2289257 1.6162695 108.807014 68.51743 48.612907 32.22857
63.305767 100.2801 16.003454 8.407994 55.2424 15.859651 114.56075 11.603542
50.19288 215.45741 122.37938 229.03874 1.5778637 48.770782 17.413609 10.4846115
20.533077 114.39425 7.289432 96.84039 26.51542 425.92572 6.061594 128.71873
126.7859 19.31683 41.151703 0.6293828 10.087726 161.41406 52.934895 45.82687
599.0136 176.45953 51.57771 1.7963766 165.89197 11.800076 416.4073 159.52167

weight f4 [32, 64, 1]
00000000: 0400 dabb 0919 f53a 0f5c d23d 8728 4a3c
00000010: 2e03 e23d f31c 03bd 1e74 9ebd 2896 4ebc
00000020: 31eb 0e3e bf14 25bd 8afd f2bd dab2 c0bd
00000030: f80d f3bd 95df 99bc a719 4c3c 9c7c 663d
00000040: fc14 04be 09c4 db3c 4ccb 86bc c21e 8c3d
00000050: d4c6 d43d be87 bebd 89e6 2d3d 3be1 66bd
00000060: 6ff4 173d 621a ac3c bde7 c1bd d76d 5f3d
00000070: 3fc3 c23d d4f7 a8bd 4098 5a3d eafc 0c3d
00000080: 21d2 e3bd 18a8 e53d 4e9b eebc a963 05bb
00000090: 4325 273d 50cc 063d 9d4f cd3d 2014 e4bb
000000a0: c63a 00be 0f06 e0bb beed b9bd d507 94bd
000000b0: be50 7f3c f36c d6bd 953d 38bd 98a8 e6bc
000000c0: 1af0 9a3d 805e 8c3d 092f 083d 5b03 7c3c
000000d0: cea9 88bd eefd 74bd 0f5b 77bd 39ff 55bb
000000e0: 6b75 86bd e534 e83d 82a9 a9bd c7f8 a5bd
000000f0: 7830 2bbd 93e0 f2bd 42dd a5bd 54d8 fc3d
00000100: 21b0 c33d 44a0 213d 493f 3abd 5fe1 e3bd
00000110: b3d0 c93d af66 ce3d 95ca 05bd 6919 d03d
00000120: b9fc f5bd 3ab6 b13c 95c5 273d 5452 0e3e
00000130: 438d 013e 4c67 a8bd 83f4 093d 43ba 893c
00000140: 5a4e 34bd 4a4b 1cbc 3356 a23d c5e8 f83d
00000150: ebbb 2ebd 4278 f53b 667f a43d cfc9 cd3d
00000160: 16aa 153c e847 b03d 848e aebd 9441 dcbd
00000170: 3fb6 973d ce63 513d da53 95ba 2901 803d
00000180: 961c 8dbc 5fc2 e03d df1a ed3d ce8e 7ebc
00000190: 3c8a cebd 5b5a 58bc 747b 003d bc2b c53d
000001a0: b723 acbd 8e1e cd3d 3d59 f73c 311b d6bd
000001b0: a4a7 d83a 761f 0b3c ceb6 a63d a1f4 bf3d
000001c0: b053 cf3d afe7 e0bd e14c ee3d f4a3 8fba
000001d0: 98ce 953d 3241 e6bd fb84 963d 721b 633c
000001e0: b755 f03c b895 6d3d dcee be3d 9de6 c8bd
000001f0: f7b8 9bbc 4a19 503d e978 b0bd e2cf 863d
00000200: dc9a 2ebd c30a ae3c cbb9 313d 2c2c 69bd
00000210: c8ff d93d 9063 113e 58e0 c43d c267 f438
00000220: 7dbd d7bd c581 b83d 4d00 d73d ab38 163d
00000230: d3ef 99bd 89f8 aebd 09b1 e63c f9de f63d
00000240: 98ea c63c d8ae 8c3c 6842 593d 8e19 953c
00000250: 6ae6 85bd 657d 093b 07f3 aa3c e130 de3b
00000260: a3fa 083d a2e1 b63d 14e8 d23d 26e5 c93d
00000270: 6b40 5d3d 4ba1 b7bb 149b 343d 682f 143d
00000280: 5e98 f83d 53e4 db3d 319f b63d 8660 d0bc
00000290: e68b a7bd de84 a5bd 472f 55bd b571 b43d
000002a0: 65b5 4a3c 7502 b3bd e39e 94bd 2d82 e83d
000002b0: f848 89bd 7912 b83d b7e0 14bd 1cd0 c1bc
000002c0: b0e2 cebd fc7c c63d caea b6bd bd21 bc3d
000002d0: 2282 e5bd b791 c4bc 3071 e9bd 7ee0 e0bd
000002e0: 2128 d8bd 1f46 a23d 7be7 30bd 4279 babc
000002f0: 3d9c dcbb 645d 503d 7e51 31bd 5715 b13d
00000300: 03de 623d 60ac 463d 3cb8 88bd b360 15bd
00000310: 748f c0bb c774 003e 5b2f 0fbe 3534 f0bd
00000320: ec7a bb3d a12b 313d bd12 a7bd d508 a53d
00000330: 3f70 623d 3749 81bc e4a5 e13d 85c7 163c
00000340: 2b67 6ebd 9f2f 60bb 90a3 a336 e4ee 283d
00000350: 115a e53b 8e57 c2bd a2ea 04be 803d 063d
00000360: 911c a63d c296 b63d 50c0 043e cb1e ea3d
00000370: 8d9b 673d f6cc 2bbd fcbe c33d e411 843d
00000380: 14ba 1e3d 069b 9c3d 5eb5 aebd 2a21 fbbc
00000390: 095a a03d a2da 0bbc 5e2e 9ebd 9f7a dabd
000003a0: 2c76 03be 2701 ee3d 716b abbd 18bc 08bc
000003b0: 9823 bc3d 5f8a bdbc 810c 40bc cfe8 253c
000003c0: 1195 933c 2411 de3d 237f 2dbd d740 eebc
000003d0: 2731 833b 4662 a5bd 49c7 863d 7551 51bd
000003e0: 3d03 ab3d bb70 ca3d 4ed1 ed3c a20b a03d
000003f0: 02e9 c3bd a25c 703d a08b f2bc 778f bc3d
-0.006652834 0.0018699478 0.10271465 0.012338764 0.11035763 -0.03201003 -0.07736991 -0.012609042
0.13956906 -0.04030299 -0.11864765 -0.09409113 -0.11867899 -0.01878337 0.012457288 0.05627118
-0.1289863 0.026826875 -0.016454361 0.06841804 0.10389486 -0.093032345 0.042456184 -0.05636714
0.037098344 0.021008674 -0.09468029 0.05454811 0.095098965 -0.082503945 0.053367853 0.034420885
-0.11124063 0.11213702 -0.02912679 -0.0020353592 0.04080702 0.03290969 0.10024951 -0.006960407
-0.1252242 -0.0068366597 -0.09078549 -0.07228056 0.015583215 -0.10469999 -0.044980604 -0.028156564
0.07565327 0.06853962 0.03324798 0.015381659 -0.06673013 -0.05981248 -0.060389575 -0.0032653345
-0.065653645 0.11338214 -0.08284284 -0.08104091 -0.04179427 -0.118592404 -0.08098842 0.12345949
0.09555078 0.03945948 -0.04547051 -0.111269705 0.09854259 0.10078179 -0.0326639 0.101610966
-0.12011094 0.021693338 0.040959913 0.13898593 0.12651543 -0.08222827 0.03368045 0.01681245
-0.044020034 -0.009539435 0.079265974 0.12153772 -0.04265968 0.0074911425 0.08032112 0.100482576
0.00913479 0.08607465 -0.085232764 -0.107546955 0.074078076 0.05112057 -0.0011392788 0.06250221
-0.017225545 0.10974573 0.11577391 -0.015536977 -0.1008496 -0.013205136 0.031367734 0.09627482
-0.084052496 0.100155935 0.03019392 -0.10454405 0.0016529453 0.008491388 0.08140336 0.09372831
0.10123384 -0.1098169 0.11635757 -0.0010958896 0.07314795 -0.11242904 0.07349583 0.013861524
0.029337747 0.05800411 0.093229026 -0.09809611 -0.019009097 0.050805368 -0.08616812 0.06582619
-0.042628154 0.021245366 0.043390077 -0.05692689 0.106444895 0.14198136 0.09613103 0.00011654153
-0.10534189 0.090091266 0.10498104 0.036675137 -0.07516446 -0.08543498 0.028160589 0.120542474
0.024281785 0.017173216 0.053041846 0.018200662 -0.065380886 0.0020979282 0.020867838 0.006780729
0.03344215 0.08929755 0.10298172 0.0985816 0.054016512 -0.0056039444 0.044093207 0.036178023
0.12138437 0.10736909 0.08917082 -0.025436651 -0.081809804 -0.08081983 -0.05204704 0.088107504
0.012372349 -0.08740703 -0.07256868 0.11352954 -0.06703371 0.089878984 -0.036347117 -0.023658805
-0.10101831 0.09691808 -0.08931501 0.091861226 -0.112064615 -0.023995264 -0.11398542 -0.109803185
-0.10554529 0.07923531 -0.043189507 -0.022762898 -0.0067324922 0.050870314 -0.043290608 0.086466484
0.055387508 0.048504233 -0.06675765 -0.036469173 -0.005876476 0.12544547 -0.13982908 -0.11728708
0.09154305 0.0432545 -0.08157871 0.08058325 0.055282827 -0.015781982 0.11017969 0.009202843
-0.058203857 -0.0034208072 4.8768197e-06 0.04124345 0.006999262 -0.09489356 -0.1298013 0.032773495
0.08110917 0.089154735 0.12963986 0.114316545 0.05654483 -0.041943513 0.09557912 0.06448725
0.038751677 0.07646756 -0.08530687 -0.030655462 0.07829673 -0.008536013 -0.077236876 -0.10667919
-0.12838048 0.116213135 -0.08370102 -0.008345626 0.091864765 -0.02313727 -0.011721731 0.010126307
0.018015416 0.10843113 -0.042357575 -0.029083652 0.004003662 -0.08075385 0.065809794 -0.051103074
0.08350227 0.09884783 0.029030468 0.07814719 -0.09565927 0.05868209 -0.029607594 0.09207051

bias f4 [32]
00000000: b120 3abd dd6a 3c3d 925f e83c da81 2dbd
00000010: 2a9b 063d 5bd5 08bd 7900 803c e8b4 be3d
00000020: 6ca4 93ba ffe3 1f3d e439 613d 3990 f1bd
00000030: d696 913d f0c9 373b 039a d93d 88ba c13d
00000040: 1e69 a83d f363 a5bd 321c 46bd c93c 563d
00000050: 84fb a23c f16d 09bd b94e 29bd e840 97bd
00000060: a3a5 7dbd 11e8 eabb 7291 57ba c2f1 0f3d
00000070: b579 8eba a204 9abd f712 d43d 4079 d73b
-0.045441333 0.04600035 0.028365884 -0.042360164 0.03286282 -0.033406597 0.015625225 0.09311849
-0.0011264211 0.039035793 0.05498685 -0.117950864 0.07108848 0.0028043948 0.106250785 0.09459406
0.082231745 -0.080757044 -0.048366733 0.052304063 0.019895323 -0.033552114 -0.04133484 -0.07385427
-0.06192554 -0.0071687778 -0.0008223272 0.035142668 -0.0010870012 -0.07520415 0.1035518 0.0065757334

weight f4 [32]
00000000: 3d85 803f be45 7e3f 4beb 803f 74ab 803f
00000010: 7df9 833f f97e 7d3f c807 7a3f 39d9 7b3f
00000020: 517f 7d3f 1f76 7c3f f93d 7f3f 5a19 7f3f
00000030: 7781 813f 49b2 7a3f 9cb2 7d3f 9539 7d3f
00000040: 0630 833f 5f39 783f b3d3 7c3f 05f2 803f
00000050: a5d9 803f 830d 813f 87da 813f 0f2c 803f
00000060: d157 7b3f 9365 823f 7772 803f aaf9 793f
00000070: 17a1 7e3f b270 813f 0998 813f c943 7b3f
1.0040661 0.9932517 1.0071806 1.0052323 1.0310513 0.9902187 0.97668123 0.9837833
0.99022394 0.9861774 0.9970394 0.9964806 1.0117635 0.9792829 0.9910066 0.9891599
1.024903 0.9696254 0.9876053 1.0073858 1.006642 1.0082248 1.0144814 1.0013446
0.9818087 1.0187248 1.0034932 0.9764658 0.99464554 1.0112517 1.0124522 0.98150307

bias f4 [32]
00000000: fbf3 0bbc 3145 71bc a4f6 a33a 073d 033b
00000010: 5dd7 eeba ff50 80bc 4f95 6a3c d193 86bc
00000020: 1e5a 65bc 2d58 8e3c f9d1 19bc d41d 253c
00000030: 5a5f 9abc 7dae bfbc fe77 54bc ecaf 61bc
00000040: 0f6f 66bb e573 c9bc c2dc a9bc 170d 1dbb
00000050: 43ec ee3b ee51 3ebb ed52 4cbc c8a7 37bc
00000060: cb8b 8abc 2fb9 70bb 8d82 f4b9 d6a7 8ebc
00000070: 5034 57bc a54c babb 8809 843a 9c69 c4bc
-0.008542056 -0.014725969 0.0012509418 0.0020025389 -0.0018222142 -0.015663622 0.0143178245 -0.016427906
-0.013998536 0.01737603 -0.00938844 0.010077912 -0.018844295 -0.023398632 -0.0129680615 -0.013774853
-0.003516141 -0.024591396 -0.020735148 -0.00239641 0.007291348 -0.0029040533 -0.012470943 -0.011209436
-0.016912362 -0.0036731472 -0.00046636575 -0.017414015 -0.013135031 -0.0056854063 0.0010073641 -0.02397614

running_mean f4 [32]
00000000: 6257 8abe 7ffe 0c3f 5632 893e 72eb 6e3e
00000010: b894 c33e b7d3 933d ed2c ef3d c30b 693e
00000020: 71a0 283e ad9e acbe 5774 aa3e 0523 b7be
00000030: 1538 76be ae30 8f3d 92bf b2bd 1a0a e63e
00000040: 56f4 a7bd d73a 9bbd 7570 9f3e affb 1cbe
00000050: 833e 813d 2db2 953d a05c 653e 1352 9e3e
00000060: dc5f 6e3e 75b1 933d d782 53bd b2fa 593e
00000070: 0853 be3e bedf 86be df95 873e b31d e03e
-0.27019793 0.5507583 0.26796216 0.23332003 0.381994 0.07218116 0.11678491 0.22758393
0.16467454 -0.3371481 0.33291885 -0.35768905 -0.24044831 0.06991707 -0.087279454 0.44929582
-0.082009 -0.07579582 0.31140485 -0.15330385 0.06310751 0.07309375 0.22398615 0.30921993
0.23278755 0.072115816 -0.05163845 0.21287039 0.37172723 -0.26342577 0.2648153 0.4377266

running_var f4 [32]
00000000: f74f 963d e4eb d23e a5db 0d3e 31e1 703e
00000010: acce f73d 4da5 413e 0daa 1a3e 5abc 863e
00000020: 833d ab3e 6cbc c33e d62e 5e3e 99d8 a13d
00000030: 9957 963e f967 983d 63ab 273e a88c a53d
00000040: d9a8 8d3e 9544 113e bfd5 413e ad19 dd3d
00000050: 6a3f 9d3d 508c 9b3e fd27 1a3f cdd0 9d3e
00000060: 6ade eb3d 814e 473d 7420 933e 4340 b33d
00000070: 3ce0 f83d be03 6e3e 9068 753e 2fb4 e23e
0.07339471 0.41195595 0.13853319 0.23523404 0.120999664 0.18910713 0.15103932 0.26315576
0.33445367 0.38229692 0.21697554 0.07902641 0.29363707 0.07441706 0.16373973 0.08083469
0.27667883 0.14186318 0.18929194 0.10795913 0.07678111 0.30380487 0.6021727 0.30823365
0.115170315 0.04865885 0.28735697 0.08752491 0.12152144 0.23243615 0.23965669 0.44278094

weight f4 [32, 1, 3]
00000000: be18 06bf 9310 073f 27dd 92be 506a 903e
00000010: 6861 f5be 813a 123f 584a 7bbe 6cb9 be3e
00000020: bd17 fe3e 7338 bf3e 03d0 8f3e 88bf d13d
00000030: 41f8 8c3d 0a86 de3e 52b6 8f3e 38c8 b4be
00000040: 2283 fd3e 434d a53e 1350 4e3d 6237 c33e
00000050: 287d 75be ac7b 543d b7a3 b63e 6a5b 2fbe
00000060: cc5e ec3e cab5 35be 5707 80be e9b5 b4be
00000070: 8fa1 b8be 1cb7 bebe 08ca c0bd f268 a2be
00000080: a065 3d3e dfa4 d6be 7911 b7be 6cda 963d
00000090: 1a4f 4ebd 8197 ec3d f9f9 29bd fd00 f63e
000000a0: 80d5 233e 2142 c03e 8b22 20be 71d9 8fbe
000000b0: 5153 f4bd 3502 0cbe 65ba bbbe 4b09 c23d
000000c0: e91e 433e b5ad e53d 0055 ee3e dac6 babe
000000d0: 448f 0e3f ea37 443e d998 f2be f825 82be
000000e0: 34e0 08bf c862 3abe 57f2 cfbe 9c16 ebbb
000000f0: 1862 0e3d d10a 69be 871c 873e 93a7 f5bd
00000100: 0448 973e d3c4 ae3d bfcf ca3e 3e60 33bd
00000110: 797c 083f dc0f a53d d5f1 bb3e 39d8 02be
00000120: 7cbb f6be 9c3f 8ebd 73dd 3fbe 8455 ef3e
00000130: 7697 b5bd 21be 07bf a4a0 113f ed66 acbc
00000140: 2452 00bf 1cac d6bc dacf 843d 7698 a4bd
00000150: f98e 0dbe 9559 bbbe a5b8 8c3d 0ab2 5b3d
00000160: 6520 233d e488 c13e 2cae 123f 09cf c03e
00000170: dc49 c8be d22c 9d3e 06b5 b03e fa94 e43e
-0.52381504 0.52759665 -0.2868435 0.2820611 -0.47925878 0.5712052 -0.24540079 0.3725084
0.49627486 0.37347755 0.28088388 0.1024161 0.06883288 0.4346164 0.28068787 -0.35309005
0.4951411 0.3228551 0.050369333 0.3812819 -0.23973525 0.051875755 0.3567178 -0.17124715
0.46166074 -0.17745128 -0.250056 -0.35295036 -0.3606076 -0.37249076 -0.094135344 -0.31720692
0.18495798 -0.41922662 -0.35755518 0.073658794 -0.050368406 0.115523346 -0.041498158 0.4804763
0.15999413 0.37550452 -0.15638177 -0.28095582 -0.11929954 -0.13672717 -0.36665645 0.09474429
0.1905476 0.112147726 0.46549225 -0.36479837 0.55687356 0.19161955 -0.47382239 -0.25419593
-0.53467107 -0.18201745 -0.40614578 -0.007174326 0.03476152 -0.22758032 0.26388952 -0.11994853
0.2954713 0.08533635 0.39611623 -0.043792956 0.5331493 0.080596656 0.3670794 -0.12777795
-0.48189914 -0.06945726 -0.1873682 0.4674493 -0.088667795 -0.5302449 0.56885743 -0.021045173
-0.50125337 -0.026205115 0.06484957 -0.08036892 -0.13824071 -0.36591783 0.06871156 0.05363659
0.039825816 0.37799752 0.57297015 0.37657955 -0.3911885 0.30698258 0.3451311 0.4464491

bias f4 [32]
00000000: 8e31 5e3e aece 7d3d f4f3 743e 1a96 913c
00000010: da22 8ebd 9f04 603e 334a e13e abc1 91bd
00000020: e6aa e73e 3fa0 d23e 5748 683e b416 ae3e
00000030: a0a0 0b3f c887 67bd c9b2 133e 8306 90be
00000040: 03d9 9fbc a6e1 60be 48ae 74be 8fb2 b2be
00000050: 670c e33e d71d 30be fd2e 0c3f 0f3f 8c3d
00000060: c28d 8a3d 6515 873e ac22 50bd d490 b5be
00000070: a263 253e bf97 9f3d 136a a83e c3f8 033f
0.21698591 0.061964683 0.23921186 0.01777177 -0.06940241 0.21876763 0.44001922 -0.07117017
0.45247573 0.41137883 0.22683845 0.34001696 0.5454197 -0.056525975 0.1442367 -0.28129968
-0.019512659 -0.21961078 -0.23894608 -0.34901854 0.443454 -0.17198883 0.547592 0.06847965
0.067653194 0.2638351 -0.050814316 -0.35462058 0.16151288 0.07792615 0.32893428 0.51551455

weight f4 [32]
00000000: 3bf6 773f 3db4 813f 43ba 7a3f ce2c 823f
00000010: 3e3e 7d3f b326 833f b0f3 783f 2889 7d3f
00000020: ff20 803f e421 7c3f 91c0 7b3f 1436 7d3f
00000030: 81c8 843f eb22 803f cd54 7c3f 3d30 763f
00000040: 551a 893f 684d 7d3f 1ae9 7d3f 3409 753f
00000050: ee72 7d3f 3589 7c3f cce7 853f db01 803f
00000060: c2d2 7a3f 5180 733f 0d88 793f f3b7 7a3f
00000070: 0cc9 7d3f 0fbf 7e3f b564 843f 3b25 813f
0.9686009 1.0133129 0.9794046 1.0169923 0.989231 1.0246185 0.9724684 0.9903741
1.001007 0.98489213 0.9834071 0.9891064 1.0373689 1.0010656 0.98566896 0.96167356
1.0711161 0.9894624 0.9918381 0.9571717 0.99003494 0.9864686 1.0461364 1.0000566
0.9797784 0.9511767 0.9747322 0.97936934 0.991349 0.9951028 1.0343233 1.0089487

bias f4 [32]
00000000: 55f3 bdbc 7a37 1e3c 64f8 34bc ce10 1b3c
00000010: 8a42 bdbb aa5f 043b 2dca 1abc d476 d7bc
00000020: ceba 97bc 6ab4 35bc cd11 9c3b df29 14bc
00000030: f8c7 2e3c 41d6 88bc 97ec 28bc 46bf 20bd
00000040: 7c76 863d ef19 84bc fb8d 6a3c 496b 25bd
00000050: 05d7 b1bc 3c43 83bc 2158 aa3c 71dc 67bc
00000060: 53e9 f3bb 5505 08bd 9c4e 0ebd 0260 00bd
00000070: 5263 383c 14e8 9fbc d830 793c af61 533a
-0.023187319 0.009656781 -0.011045549 0.009464456 -0.0057757543 0.0020198622 -0.0094476165 -0.026301779
-0.018521693 -0.011090377 0.004762864 -0.009043186 0.010667793 -0.016703727 -0.010310314 -0.039244913
0.06565568 -0.016125647 0.014316077 -0.04038552 -0.021708975 -0.01602327 0.020793976 -0.014151678
-0.007443586 -0.03320821 -0.034742936 -0.03134156 0.011254149 -0.019519843 0.015209399 0.0008063567

running_mean f4 [32]
00000000: d31d a53d cb41 593e 44a7 023f b64f b13e
00000010: a8c7 9d3e c69c dd3e bc41 093f 5b55 d43c
00000020: 7936 f03e 8415 f8bd 85de 013e ddf1 f53b
00000030: 7cef 0e3f d1db d73e f03f c9bd 54a8 f8be
00000040: f8da a53e e8d1 43bd 1678 4bbf c659 21bf
00000050: 25be f33e 9663 59bd c2bd 683f b4b6 503e
00000060: 4ab4 99be 06a8 383e a431 04bd 61ef bfbe
00000070: 77c8 59bd 418e 943e 0514 123f 5982 743f
0.08062329 0.21216504 0.5103648 0.34631127 0.30816388 0.4328367 0.5361593 0.025919607
0.4691656 -0.12113479 0.1268254 0.007505639 0.55834174 0.42159894 -0.09826648 -0.48565924
0.32393622 -0.047807604 -0.7948011 -0.6302761 0.47606006 -0.05307349 0.9091455 0.20382196
-0.30020362 0.18032846 -0.032273903 -0.3748732 -0.053169694 0.2901478 0.570618 0.95511395

running_var f4 [32]
00000000: 9ad2 f63d 0eaa db3d c802 aa3e bfb4 b53e
00000010: 7aff b83e 8ed0 133e de7b 003d 8436 163d
00000020: 431b 973c c42c 273e 8447 203d b969 2b3e
00000030: ff74 8a3b 4a9b d33e 6541 193e 2dc2 8f3d
00000040: 8951 823e 28a1 ea3d 64d8 463f 9445 b13d
00000050: 7f0f f43c b296 293d 832f 013f 4133 993d
00000060: bfef 2b3e ef0d 063e 28f4 943c 7a5a 203b
00000070: 59b0 063e a4b6 3f3d f2ea 663e 87d3 413f
0.12051888 0.10725795 0.33205247 0.3548946 0.36132413 0.14435026 0.03136813 0.036673084
0.018445617 0.1632567 0.039130703 0.16739549 0.004225373 0.41329414 0.14966352 0.07019458
0.2545283 0.11456519 0.77673936 0.08655849 0.029792545 0.04140348 0.5046312 0.07480479
0.16790675 0.13091253 0.018182829 0.002446799 0.13153209 0.04680504 0.22550562 0.7571339

weight f4 [64, 32, 1]
00000000: 4cd5 993d 283f 06be 4a85 123e ab31 27be
00000010: 4c08 043e 1826 be3d d647 d7bd 60e8 1d3d
00000020: 9e9e df3d 3ecc 1dbe 47d8 00be 93ab f2bd
00000030: afc9 17be c333 aebc 10fe 833d f326 cc3d
00000040: 58cd 013e ea3e 2abe 8d65 843d 114f 08be
00000050: 5d2c 14be 502d 94bd 18d5 75bd 6bd3 04be
00000060: fcbd 5c3d e374 21be ca56 e1bb 7f34 f1bc
00000070: deab d73d b80a 153e a506 26bd 5b57 0e3d
00000080: a0fe 0cbe dfe6 05bd 6efd 2b3e bf3a 013e
00000090: 5d75 2abe 545b 483e b00c e7bd e1c1 c13b
000000a0: 9b4b 02be d26e e93c c844 003e e11d 8abd
000000b0: 43c9 23be 9a47 1abd 0b81 293e 7a40 c7bc
000000c0: 425d 9ebc 0596 223e 9d4e 27be a387 143e
000000d0: 4cf0 5fbd cb4b 113e 3ffe de3b 014e 033b
000000e0: a5d3 3b3d 1018 ecbd 9fdc 003e 338c 0b3e
000000f0: 1388 cf3d b819 9f3c 0d52 13bc b6a0 ab3d
00000100: d9c4 ffbc 583c 333e 5b64 163e d0e8 2fbe
00000110: 54b4 7fbd 2000 7fbd 1582 60bd 7610 053d
00000120: 34bb 3abe b54e 0ebd 6e1a 21be 035f 45bc
00000130: 8ead bcbd d913 9b3d 7086 7fba 462b da3d
00000140: ba09 353e 679b 0bbc 5cc8 13be c010 36bc
00000150: 8088 bbba 3f92 d33d 1d14 263d 9c0e 34be
00000160: 8813 ecbd 933c 3b3c 4a9f 5ebd 6c44 a03d
00000170: ba02 003e 0f96 223e 84f9 913d 6238 1d3d
00000180: 24e8 0abd 1633 603d 2d24 093e b9ef 88bb
00000190: 7c3e 48bd 2ccb 1d3e 5b8d 883d 8962 0b3e
000001a0: 646d 69bd 7f73 6cbc 70ff 39bd 5f2f 6dbd
000001b0: 6f0d 073e 075e 2b3e e027 2d3e b932 e83d
000001c0: a405 233e 3e14 22be 3eaf 9b3d 6dd5 023e
000001d0: de54 ce3d 459d a03d a625 ebbd b04d bd3c
000001e0: da76 0c3e e370 8a3d 73d5 ad3d f058 363d
000001f0: b5a8 ccbd d5b2 d63d 94f7 453d e09b a9bd
00000200: 6feb eebd 3094 0ebe 8417 9fbc de2a ba3c
00000210: 0bc1 e3bd abf2 ea3d 9c76 023e af8f 3e3e
00000220: fb9d 0f3e c235 3e3e 3f87 3c3d 94c5 1c3d
00000230: b13c 443c da31 dabd 5e35 c93a ebba 1ebb
00000240: 0557 21be d03a 41bd ca75 25be 7ad1 43bd
00000250: 692a 4a3d 3130 c53d b14c 263d 95f6 853d
00000260: 998d 123e 7c37 1f3e 4cbb c73d 90aa 663d
00000270: 0c7a c5bc 81d4 ff3c d393 0e3e 2966 443d
00000280: 1079 df3d 3015 e23d ff55 a83d 20ca 5dbd
00000290: 7fd0 04bd ff64 95bd c488 b8bd d9da 04be
000002a0: 6f23 20be 1c82 19bd cc64 e4bd fb59 01be
000002b0: ab0c f0bd 2f60 9f3d 562f b03d 783b fcbd
000002c0: ce9f 34be b075 b43c e2a0 953d d056 01bd
000002d0: 06d3 aabd 7fcc 103e 1e93 47be 55bf 913d
000002e0: a6d7 b13d 90cd b33d 84f9 28bd 7dd1 4abe
000002f0: c1b2 d33c 4b11 ae3d 2420 45be 8b26 49be
00000300: cb10 933d 8352 5fbc d6a4 c9bd e863 6cbc
00000310: ef8d 1f3e dbed d83d f75f 373d d5b4 aabd
00000320: 0c89 283e 4a81 033e c571 6c3d 89fc 2e3e
00000330: 14eb 5bbd 928d 0f3e dc41 47bd 6688 67bc
00000340: ab3e d5bc b134 903c 39d5 ddbd db80 0bbd
00000350: 8233 d63c 7f39 f8bd ea9d 44bd 52cd 8d3d
00000360: 4056 0a3e bb28 1fbe b2a0 4bbd b1c0 04be
00000370: fbf0 c73d 3e20 b5bc 7ceb 313e 1936 e7bd
00000380: f8de 053e 18e9 05bd 6a6c 34bc 9c21 00be
00000390: 46ab 3fbc a4fe 25be 3c28 e43d ab9f 3a3d
000003a0: b584 343d 7d6c c03d ba5a 343e 9f75 4c3d
000003b0: faab 3d3e ace1 a0bd 344f 193d 576e 363e
000003c0: 9631 52bc fa63 06be a97e a13d 065d 8b3d
000003d0: d804 943d 8e45 303d 0a31 d7bd 25d8 6fbc
000003e0: fc93 3ebd a6ca 073d 26eb 013d c78c 0a3e
000003f0: dfe1 e83d ed31 07be d5f8 20bd 38fd 063d
0.07511386 -0.1311003 0.14308658 -0.1632754 0.1289379 0.092846096 -0.105117485 0.03855169
0.10918926 -0.15409943 -0.12582503 -0.118491314 -0.1482303 -0.021264916 0.06444943 0.099683665
0.12675989 -0.16625562 0.06464682 -0.13311411 -0.14470048 -0.07235205 -0.060017675 -0.12971275
0.05389212 -0.15767245 -0.006876801 -0.029443977 0.10530828 0.1455487 -0.04053368 0.034751277
-0.13769007 -0.03269088 0.16795895 0.12620066 -0.16646333 0.19566089 -0.11281717 0.0059130047
-0.12724154 0.028495226 0.12526238 -0.0674398 -0.15994744 -0.03766594 0.16553132 -0.024322737
-0.019331578 0.1587754 -0.16338582 0.14504866 -0.054672524 0.14189069 0.006805211 0.0020035508
0.045856137 -0.11528027 0.1258416 0.136277 0.10133376 0.019421443 -0.00899173 0.083802626
-0.031221794 0.17503488 0.1468672 -0.17178655 -0.062427834 -0.06225598 -0.054811556 0.0324864
-0.18235475 -0.03474303 -0.15732738 -0.012046578 -0.092127904 0.07572145 -0.0009747511 0.10652785
0.17679492 -0.0085209375 -0.144319 -0.011112392 -0.0014307648 0.103306286 0.040546525 -0.17583698
-0.11527163 0.011428016 -0.05435113 0.078255504 0.1250104 0.15877555 0.071276695 0.03838385
-0.033912793 0.05473622 0.13392706 -0.004178968 -0.048887715 0.15409535 0.066675864 0.13611807
-0.05698909 -0.014431833 -0.04540962 -0.057906505 0.13188718 0.16735087 0.16909742 0.113377996
0.1592012 -0.15828034 0.07601784 0.12776728 0.10074781 0.07842497 -0.1148179 0.023108333
0.13717213 0.06759813 0.08487978 0.04451841 -0.09993116 0.10483328 0.048331812 -0.08281684
-0.11665999 -0.13923717 -0.019420393 0.022725519 -0.111208044 0.114720665 0.12740558 0.18609498
0.14025109 0.18575194 0.04602742 0.038274363 0.011977361 -0.1065404 0.0015350988 -0.0024220299
-0.15755852 -0.04717523 -0.16158214 -0.047807194 0.04935685 0.096283324 0.040600482 0.065411724
0.14311828 0.1554851 0.09752521 0.056315005 -0.024106048 0.03122926 0.13923578 0.04794899
0.10911763 0.110391974 0.082195275 -0.05414784 -0.0324254 -0.07294654 -0.09010461 -0.12974109
-0.15638517 -0.037477598 -0.11152038 -0.12631981 -0.11721166 0.077820174 0.086027786 -0.1231603
-0.17639086 0.022028774 0.073060766 -0.03157693 -0.08341031 0.14140509 -0.19489715 0.07116572
0.0868371 0.08779442 -0.04125358 -0.19806476 0.025842072 0.08499392 -0.19250542 -0.19643609
0.071809374 -0.013630512 -0.09845893 -0.014428116 0.15581487 0.10592242 0.044769254 -0.08335272
0.16458529 0.12842289 0.057725687 0.17088522 -0.053690985 0.14018849 -0.048646793 -0.014131641
-0.026030859 0.01760325 -0.108316846 -0.034058433 0.026147608 -0.121203415 -0.04800216 0.06923927
0.13509464 -0.15542881 -0.049713798 -0.12964131 0.0976276 -0.0221101 0.17374986 -0.11289615
0.13073337 -0.032693 -0.011012176 -0.12512821 -0.01169855 -0.16210419 0.111404866 0.045562427
0.04407187 0.093956925 0.17612734 0.04991686 0.18522635 -0.078555435 0.03742905 0.17815529
-0.012829205 -0.13124076 0.07885487 0.06804852 0.07227486 0.043035083 -0.105074 -0.014638935
-0.046527848 0.033152245 0.031718396 0.13530265 0.113712065 -0.13202639 -0.039299805 0.032956332

bias f4 [64]
00000000: 3f12 943d d29c bcbd a9ca 943d a6d2 e2bd
00000010: 4ec9 973b f286 b93d 7ee4 67bc cc92 92bc
00000020: fe94 16be aad0 8b3d fd10 f63c 9d85 debd
00000030: 5639 44bd 03df 2d3e 2b5d 843d 0dd2 ce3a
00000040: 0f84 61bd 2f86 f6bd 0548 1d3e 758b 72bd
00000050: ee83 cfbd 3242 343e ce0f 09bc 12ba 5bbd
00000060: 6b16 63bd 1bce cbbd 24e1 01be a1f1 153e
00000070: 65eb 14be c89b 7dbd af40 c7bd c2fa 29be
00000080: 05d6 e0bd 6831 02bc e67a edbc 01ee 2abd
00000090: 754b e73d 94ec 32be 77aa aa3c 5213 6bbb
000000a0: 28d8 21be 1397 ee3d 4d23 20bd 00c4 f73d
000000b0: e20a c33c f569 d4bd 785f c63d bfb8 1cbe
000000c0: 83a2 1b3e 2f8a 95bd 6190 14bd 3588 ba3d
000000d0: 06da 2ebe ad8c d33c 54a3 c7bd 703e 6cbd
000000e0: 1788 0abd 5108 903c a2b5 09bd 86a9 e7bc
000000f0: d2d0 263d 612a 3abd ac00 ecbb 12b6 183e
0.07230043 -0.092095986 0.07265217 -0.11075334 0.0046321517 0.09058942 -0.014153598 -0.017892264
-0.14705274 0.06826909 0.030037398 -0.108653285 -0.047906242 0.16979603 0.06463083 0.0015779153
-0.05505758 -0.12037312 0.15359505 -0.059215028 -0.101325855 0.17603377 -0.008365585 -0.053644247
-0.0554413 -0.09951421 -0.1268354 0.14642955 -0.14542921 -0.061916143 -0.09729134 -0.16599563
-0.10978321 -0.00794635 -0.028989267 -0.041730884 0.11293689 -0.1747306 0.020833237 -0.003586967
-0.15805113 0.11649909 -0.039096165 0.12097931 0.0238089 -0.10371772 0.09686178 -0.1530485
0.15198712 -0.07301747 -0.036270503 0.09108011 -0.17075357 0.025823915 -0.09747949 -0.057676733
-0.03382119 0.01758209 -0.033620484 -0.028279077 0.04072649 -0.045450572 -0.0072022285 0.14913204

weight f4 [64]
00000000: 6133 7c3f 1235 7c3f 975d 783f ac2e 803f
00000010: 2b90 813f 98a1 713f 2946 803f eaf2 803f
00000020: f339 7b3f 1d09 813f a99c 7e3f c0b6 7c3f
00000030: de90 753f 6cb3 793f e489 7e3f 038d 803f
00000040: 8140 793f 2e98 813f d323 803f d814 813f
00000050: 6087 803f 3c5a 823f 94c6 7e3f ff20 803f
00000060: e633 813f 67bf 803f 94d7 6b3f cc4b 803f
00000070: eb62 7d3f 4861 803f 367d 803f 19cf 803f
00000080: 5031 813f 4304 813f 646f 7d3f c499 723f
00000090: 5fc3 803f 716c 7c3f e9dc 703f a5a6 773f
000000a0: 62fe 7d3f d8a1 803f 4047 803f 032a 813f
000000b0: d1ab 7e3f f970 803f 00e0 7a3f 9cdf 7e3f
000000c0: 83d8 813f 5ab8 783f e52e 803f 47ce 7e3f
000000d0: dc9d 803f 92a5 793f 6d7d 803f b286 753f
000000e0: 77af 783f e2c4 7d3f deeb 803f a0f1 7b3f
000000f0: e6d0 763f 72f5 7f3f eb8f 733f 620a 7e3f
0.985159 0.9851848 0.97017807 1.0014243 1.0122122 0.943872 1.0021411 1.0074131
0.981353 1.0080906 0.99457794 0.98716354 0.95924175 0.975394 0.99429154 1.0043033
0.9736405 1.0124567 1.0010933 1.0084486 1.0041313 1.0183787 0.99521756 1.001007
1.0093963 1.0058411 0.9212582 1.0023131 0.9897906 1.0029688 1.0038211 1.0063201
1.0093174 1.0079426 0.98998094 0.9476588 1.0059623 0.9860297 0.9408708 0.96738654
0.9921628 1.0049391 1.0021744 1.0090946 0.9948092 1.0034477 0.97998047 0.9955995
1.0144199 0.971563 1.0014311 0.99533504 1.0048175 0.97518265 1.0038277 0.95908654
0.9714274 0.99128544 1.0071981 0.98415565 0.96412504 0.99983895 0.95141476 0.9923459

bias f4 [64]
00000000: 972d 993c ee29 a43c 32b9 033d 438f fc3a
00000010: 6058 703a b4e8 593d 1ec6 ec39 d245 b33b
00000020: 3ccd 9c3c 3e9b cebb 68cd 1bbc 33bc a5bc
00000030: b0eb 4e3d f6d3 d7bc 15fe 3dbc 7aa8 1abc
00000040: c0cc bfbc 9a59 dbbb c78f 253c 23a6 9c3b
00000050: 270e ac3a 5d67 f63b 8f7d 94bc 2a56 f7bb
00000060: 0d3d 41bb a2a7 9e3a 5567 703d 14ae 2ebc
00000070: 06c5 88bc 0204 81bc 3034 e63a 284d f93b
00000080: f904 03bc f97f ec3a 430f 453c e17f 12bd
00000090: eca6 b0bb ed1e 6ebc 05c4 2b3d 256b 01bd
000000a0: c6db 55bc fb12 653b 1b6a 8c3b b517 0d3b
000000b0: 9b29 32bc 6566 dabb 4016 cc3c 091a 42bc
000000c0: f9f5 abbb 1d8e c43c af44 37bc 1097 55bc
000000d0: 54fe 44bb ff5a d23c 3d4d e4bb 331c 203d
000000e0: 2bab d5bc 3a88 6bbc 61f3 de3b 1b76 a23b
000000f0: 4b56 0ebd c350 ef3b 1d66 4c3d 204c 79bc
0.018698497 0.020039525 0.032159038 0.001926877 0.00091684423 0.05320044 0.00045161037 0.0054709697
0.019140832 -0.0063051274 -0.009509422 -0.020231342 0.050517738 -0.026346188 -0.011596222 -0.009439582
-0.023413062 -0.006694031 0.01010508 0.004780547 0.0013126776 0.007519646 -0.018126277 -0.0075481134
-0.0029485852 0.0012104402 0.058692295 -0.010661621 -0.01669551 -0.015748981 0.001756316 0.0076080747
-0.007996791 0.001804351 0.012027564 -0.035766486 -0.0053909924 -0.0145337405 0.041934986 -0.03159632
-0.013052886 0.003495394 0.0042851097 0.0021529023 -0.010874177 -0.0066650384 0.024912953 -0.011847028
-0.005247828 0.023993546 -0.011185809 -0.013036504 -0.0030058818 0.025678156 -0.0069672153 0.039089393
-0.026082596 -0.014375741 0.0068039154 0.004957927 -0.034750264 0.0073033287 0.04990207 -0.0152159035

running_mean f4 [64]
00000000: 893a 00be 5a58 0b3e b806 e33d 6427 cc3e
00000010: 8985 8a3e 01ca 90be 5be9 213e 2ec1 513e
00000020: 1e70 6bbe 21da 123e 2239 4cba d7db c53d
00000030: 20a8 0d3e 2dfb 1e3f 19f7 853e 9752 9e3c
00000040: 96aa 1c3e 9a3e f3bd d443 0f3e 37e4 9fbe
00000050: 0720 9039 dc2a 3c3e 3f95 ab3e 66f6 6bbd
00000060: fde0 71be db06 303e 1ab5 bbbe 46df a43d
00000070: 9c92 3ebe 33bc 5f3e 2eb4 6dbd 423c 523d
00000080: 3b9d 5cbe 6daa 9b3d 78f8 d13d d742 a5bc
00000090: 77ae 0d3e 63aa 3e3e 65a6 183e b520 38bd
000000a0: 1c8c 68be 9407 cb3d 4301 833d 8388 4c3f
000000b0: 3c5b fe3b d186 0d3e ea5c a6be d738 dc3d
000000c0: 395c 693e 65d0 dabd 3442 fabd 83d7 b13c
000000d0: 1122 0dbf 96cf 5d3e dbfa 89be fc5d 06bf
000000e0: 7c4b b33d f60a ab3e e3bb 483d 58b1 13bd
000000f0: ac84 a83e 8e36 023e 4b9c 6fbe 1e5c 013e
-0.1252233 0.13607922 0.11085266 0.39873803 0.27055004 -0.28279117 0.15811674 0.20483848
-0.22991988 0.14341022 -0.0007790496 0.09661072 0.13833666 0.62102014 0.26165083 0.019326491
0.15299448 -0.11877175 0.13990718 -0.31228802 0.00027489683 0.18375725 0.33512303 -0.05760803
-0.23620982 0.17190115 -0.36661607 0.080503985 -0.18610615 0.21849136 -0.05803316 0.051326998
-0.21544354 0.076008655 0.1025247 -0.020173473 0.13836084 0.18619685 0.14907224 -0.044953067
-0.22709697 0.09913555 0.06396725 0.798958 0.007762341 0.1382096 -0.32492763 0.10753029
0.22789086 -0.10684279 -0.122196585 0.02170921 -0.55130106 0.21661219 -0.269492 -0.5248716
0.08754632 0.334068 0.049007308 -0.0360578 0.3291372 0.12716123 -0.23399465 0.12632796

running_var f4 [64]
00000000: 8bc4 453e a108 473e 3915 f03d 1d05 833e
00000010: bd9d 5f3e 33df 723e 9bc4 d33d 12a5 283e
00000020: 729e bf3d ded0 b63d 8528 9f3d c6e9 9f3e
00000030: d4a2 b13e 4c38 de3e d276 403e 788b 133e
00000040: 8ef5 033e 5eb7 8a3e ba50 383e b1c8 0c3e
00000050: 2a83 893e 479a b13d 8297 723e 5484 ba3e
00000060: bfe1 c53d d453 033e a124 3e3e fce1 243e
00000070: c559 e23d 0cf4 8b3e 6580 453e 7a18 f23e
00000080: 7e04 d23d f790 423e ab28 273e 1ee6 b63d
00000090: 824d 193e 5038 9c3d 46d8 123e e911 153e
000000a0: a828 243e 3be3 e03d 53a0 053e e682 043f
000000b0: 7e29 a83d 373b af3d fc5b ae3e 3ea4 2b3e
000000c0: 55eb d53e 5140 033e 6e28 543e 50e2 8e3d
000000d0: 63d1 6a3e 8de4 643e 4772 573e 1d54 093f
000000e0: e5a2 313e d802 e83d 86b2 4a3e b9e7 663e
000000f0: ae25 933e ac2d 5b3e e049 3a3e dd2f bc3d
0.19313256 0.19436885 0.11722798 0.2558984 0.21837516 0.23717956 0.10340234 0.1646922
0.09356393 0.08926557 0.077714 0.31233042 0.3469454 0.43402326 0.18795326 0.14408672
0.1288664 0.27093023 0.17999545 0.13748433 0.26857883 0.08672004 0.23690608 0.36429083
0.09662198 0.12824947 0.1856866 0.16101831 0.110522784 0.2733463 0.1928726 0.472843
0.10254763 0.19000612 0.16324107 0.0893061 0.14970973 0.07627928 0.14340314 0.14557613
0.16031134 0.10980841 0.1304944 0.51762235 0.08211039 0.08556216 0.34054554 0.16761872
0.41781107 0.12817504 0.20718548 0.069767594 0.22931437 0.2235281 0.21039687 0.5364397
0.17347296 0.113286674 0.19794664 0.22549333 0.28739685 0.21404141 0.18192244 0.09188817

weight f4 [64, 1, 3]
00000000: 90d3 b5be 04e6 7a3e 19b4 01bf 97c6 fe3e
00000010: e355 babe d031 8f3e d7ac 053f aae7 ec3e
00000020: 47da 86be 491d d2be f0c3 f13e 4275 15bf
00000030: 11ef c43e 50e7 a23e 852d 093f 0508 39be
00000040: 2717 01bf b6b8 07bf d42c dc3b 1666 063e
00000050: 8e4d 7dbe 5d88 823e 5bff f33e 0bd6 6fbd
00000060: 9d40 dd3d 9a8b 40be a314 f33e e1e9 88be
00000070: e6b9 14be 92b4 b03e ff3a fc3e 3a64 0bbf
00000080: 4291 d43d ce5a 9cbe 1bf5 4d3e 0403 c1be
00000090: f634 d9be e04d 11bf 0f02 f4be 40e6 f1be
000000a0: 0369 a73e 76f7 323e 0024 9abe 9117 98be
000000b0: ed45 663e 4de4 15be 115e d53e 0d03 0d3f
000000c0: 19cb eb3e b399 203e 7134 bcbe e5dd e2bd
000000d0: 7b78 c33e 60eb a9be fa4b a53e da67 a33e
000000e0: e55b b13e 7d15 c3be 0cb7 113f 34fd 0e3c
000000f0: d6e2 60bd 58d9 1fbe d428 c93e 23a7 b9bd
00000100: 431f 973e 7fc9 3a3e 8485 87be 08d5 c2be
00000110: 161e 81be d6ca 153e d881 c83e a971 9e3e
00000120: 5b55 0f3f 8585 0fbf 1168 953c 38be 7b3d
00000130: c484 5fbc ec39 273d a4a7 083f f2f6 603e
00000140: 2e79 68bb 5a1c bb3e b55e d2be 7489 f9be
00000150: ef4a bb3e 82d3 c7be 78b7 3e3e c257 9cbe
00000160: 60dd e33e d439 b1be a882 d3be e5f3 85be
00000170: f8ed e33e 9d1c ec3e f2c8 b4bd ee54 03bf
00000180: 61de 16bf 5754 0abf fa44 093f b5e3 413e
00000190: 75b5 01bf d906 b9be d594 aa3e 7f62 ed3e
000001a0: 1e47 8b3e e37f 063f 7dd7 85bb f1ec c8bc
000001b0: 6185 cb3e 12aa 593e c94e bbbe ea6e c4be
000001c0: e62d 21be 953d 673e ee0d 883e 2728 a2bd
000001d0: 0ffd f93e cf82 07bf d458 89be 3c28 40be
000001e0: b8e4 a8bd 6741 8abe d418 c93e e345 82be
000001f0: 8a0b bc3e 9ad1 883d a0bd 163e 6dd8 a1be
00000200: 18bb 1bbe 3557 15bf 820a ddbe 8a57 f13e
00000210: d5d5 e63e 4be4 e63d baac ba3e 7b30 b2be
00000220: 4e56 99bc bb9e 723e d988 0cbf 26d9 c4be
00000230: e0a7 f6be 7d0b 93be 00a8 7b3d 265b 45be
00000240: a3cf 033e 15b9 903e f44c 13bf 278f 77be
00000250: cebe d33e e4f1 303d 9e02 003f fc17 f73e
00000260: 352f c0be da73 c3be c7bf 5d3e fa09 913e
00000270: b6ae eb3e 26de ae3d bd93 fabe 6145 cf3b
00000280: 03ef b33e c9cf e23e 8dd4 0abf 134f d43e
00000290: 0481 c83e 11f9 a63e b7ba 67be 638a d7be
000002a0: 468d 2c3e 1c7f 12bf 0e4a 5bbe 560e 00bf
000002b0: 3aa8 55bc ac7b d33e 5546 de3e acb4 ea3e
000002c0: 64c0 ff3e 985f 86bd e013 af3e 148b febd
000002d0: a224 7bbe 201b b4be 7aaf 4f3e e80b dd3e
000002e0: ad31 e9be 3d1b fe3e 90d5 77be 2c3b 01bf
000002f0: ce46 e8bd b796 0ebe 4de6 7c3e d08b c43e
-0.35512972 0.24501806 -0.5066543 0.49760887 -0.3639365 0.2796769 0.5221686 0.46270496
-0.26338407 -0.41037968 0.472198 -0.58382046 0.38463643 0.31817102 0.5358508 -0.18069465
-0.5042595 -0.5301622 0.006719211 0.1312488 -0.24736616 0.25494662 0.47655758 -0.058553737
0.1080334 -0.18803254 0.47476682 -0.26740935 -0.1452404 0.34512764 0.4926376 -0.5444981
0.10379268 -0.30538028 0.20113032 -0.37697613 -0.42423218 -0.5675945 -0.4765782 -0.4724598
0.32697305 0.17477211 -0.3010559 -0.2970548 0.22487612 -0.14637871 0.4167333 0.5508278
0.4605339 0.15683632 -0.3675876 -0.11077479 0.38177857 -0.3318739 0.32284528 0.3191517
0.34640422 -0.38102332 0.5691993 0.0087273605 -0.054903828 -0.15610254 0.39288962 -0.09065082
0.29516038 0.18240927 -0.26469052 -0.38053155 -0.25218266 0.14628157 0.39161563 0.3094609
0.5598962 -0.5606311 0.0182381 0.061460704 -0.013642494 0.040826723 0.533808 0.21969202
-0.003547262 0.36545068 -0.4108788 -0.4873768 0.36580607 -0.39028555 0.18624675 -0.30535704
0.44504833 -0.34614432 -0.4131062 -0.2616264 0.44517493 0.4611558 -0.0882739 -0.5130147
-0.58933073 -0.5403494 0.53620875 0.1893452 -0.50667506 -0.36138037 0.33316675 0.4636421
0.27202696 0.5253889 -0.004084526 -0.024527045 0.39750198 0.21256283 -0.36583546 -0.3836587
-0.15740165 0.22582085 0.26573128 -0.07917815 0.4882588 -0.52933973 -0.26825583 -0.18765348
-0.0824675 -0.27003023 0.39276755 -0.25443944 0.36727554 0.06680603 0.14720774 -0.31610432
-0.1520809 -0.5833619 -0.4317208 0.471371 0.45085016 0.11274012 0.36459905 -0.34802613
-0.018717911 0.23693363 -0.5489631 -0.3844692 -0.48174953 -0.28719702 0.061439514 -0.19273052
0.12872176 0.28266206 -0.57539296 -0.24175702 0.4135651 0.043199435 0.50003994 0.48260486
-0.37536016 -0.38174325 0.21655189 0.28327924 0.4603173 0.08538465 -0.4894084 0.0063254093
0.3514329 0.44299152 -0.54230577 0.4146658 0.3916093 0.32611898 -0.2262982 -0.42097768
0.16850767 -0.57225204 -0.21414968 -0.50021875 -0.013040597 0.41305292 0.43413034 0.45840967
0.4995147 -0.06561202 0.3419485 -0.12428871 -0.24525693 -0.35176945 0.20281783 0.43173146
-0.45545712 0.49630156 -0.24202561 -0.50480914 -0.1134163 -0.1392468 0.24697228 0.38387918

bias f4 [64]
00000000: 3a84 233c b4ff 67be 4b32 bc3e 7f29 e53e
00000010: 7979 efbd 8deb 523e 1b4b f4be 2bc6 113d
00000020: c8bd c3be c4f7 acbe fe66 753e 618f 0abf
00000030: 7527 4e3e 8036 013f bb6d 8b3e 266d 78be
00000040: 6cf4 c9bd 8b5c d4bd 51b3 483e d486 913e
00000050: 2229 4b3e 3660 7a3b 69da ad3e a3d5 90be
00000060: aa5a 02bf 62e5 ecbd 954b 85bd 0da8 e6be
00000070: eb80 54be 483d 9d3e 2f8e eb3d d9f7 babe
00000080: 66e8 493e 49e5 03bf 04fa 7dbd 6907 793e
00000090: 0bee a43d 4661 063f 48f5 d73d 6f99 a53e
000000a0: 9155 53be 90f5 43be 26ab 04be 71f8 503e
000000b0: 616d 2dbb 86cc c13e d867 fe3e 9a73 b23e
000000c0: d7a5 dc3e 22d7 11bf c2b9 fabe 4bac a53d
000000d0: 55cd 40be a2b0 c8be a7e8 3ebe 8293 0d3f
000000e0: da27 28be e4e5 dc3e b53f 493e 9f20 e6bd
000000f0: 5fa9 babe 2e74 7d3e 2e4e de3e fa09 f1be
0.009980256 -0.22656137 0.3675712 0.44758222 -0.11693091 0.20597668 -0.4771355 0.03558938
-0.3823073 -0.3378278 0.2396507 -0.5412503 0.20132239 0.50473785 0.27232155 -0.24260387
-0.09861073 -0.10369214 0.19599654 0.28423178 0.1983991 0.003820432 0.33955696 -0.28287992
-0.5091959 -0.11567189 -0.06508557 -0.45050088 -0.20752303 0.30710816 0.11501729 -0.36517218
0.19717559 -0.51521736 -0.06200601 0.24319233 0.080532156 0.5249218 0.105448306 0.32343623
-0.2063811 -0.19136643 -0.12955913 0.20407273 -0.00264629 0.37851351 0.49688601 0.34853822
0.43095276 -0.5696889 -0.48969847 0.08089503 -0.18828328 -0.3919726 -0.18643437 0.55303204
-0.16421452 0.43144143 0.19653209 -0.11236691 -0.36457345 0.2475135 0.4341902 -0.47077924

weight f4 [64]
00000000: 0b65 803f d247 7c3f 7ffc 843f b331 7b3f
00000010: 54b4 7f3f 4be9 813f 0f1b 773f 115b 7d3f
00000020: b077 773f 5c46 793f d850 753f 2880 7d3f
00000030: acb4 873f d600 803f 8740 823f 4ea6 7a3f
00000040: b854 833f 622c 843f 913a 803f a1aa 793f
00000050: 9ec5 7e3f 3513 823f 0d3c 863f f0ae 833f
00000060: 4fa5 7b3f 0d54 7e3f e799 703f 7cd2 7a3f
00000070: 4983 823f e309 803f 9b30 773f b2c3 803f
00000080: b97f 763f 8bec 803f 3614 823f 1162 863f
00000090: a270 773f 897e 7b3f 5742 813f 2656 7d3f
000000a0: 4ebd 7c3f dfe1 743f 7726 7b3f 0fdc 803f
000000b0: 50ef 7c3f 8944 7d3f b215 8a3f 3655 823f
000000c0: dc62 7f3f d872 713f 361d 813f 946c 793f
000000d0: 0a58 773f e4ef 833f bbdf 7e3f 7d06 853f
000000e0: fb19 813f eda7 7e3f 7e89 843f 0b75 763f
000000f0: 73d3 823f e979 7d3f 2e1e 813f dc32 823f
1.0030836 0.9854709 1.0389556 0.9812271 0.99884534 1.014932 0.96525663 0.9896708
0.96667004 0.97372985 0.9582648 0.99023676 1.0602012 1.0000255 1.0175942 0.9791001
1.0260229 1.0326045 1.0017873 0.97525984 0.9952029 1.0162112 1.0487076 1.0287762
0.98299116 0.99347 0.93984836 0.97977424 1.0196315 1.0003017 0.9655854 1.0059721
0.9628864 1.0072187 1.0162418 1.0498677 0.9665624 0.9823995 1.009837 0.9895958
0.98726356 0.9565715 0.9810557 1.0067157 0.9880266 0.989327 1.0787871 1.0182254
0.9976022 0.9431586 1.008704 0.974313 0.9661871 1.0307584 0.99560136 1.0392605
1.0086054 0.99474984 1.0354459 0.96272343 1.0220779 0.99014145 1.0087335 1.0171771
